…
| Processes:                                                                              |
|  GPU   GI   CI        PID   Type   Process name                              GPU Memory |
|        ID   ID                                                               Usage      |
|=========================================================================================|
|  No running processes found                                                             |
+-----------------------------------------------------------------------------------------+
loaded 6905 observations
number of unique genes: 32051
Transformer(
  (emb_gene): Embedding(32051, 128)
  (proj_expression): Linear(in_features=1, out_features=128, bias=True)
  (proj_gene_input): Linear(in_features=128, out_features=512, bias=True)
  (pos_encoder): PositionalEncoding(
    (dropout): Dropout(p=0.1, inplace=False)
  )
  (encoder): TransformerEncoder(
    (layers): ModuleList(
      (0-2): 3 x TransformerEncoderLayer(
        (self_attn): MultiheadAttention(
          (out_proj): NonDynamicallyQuantizableLinear(in_features=512, out_features=512, bias=True)
        )
        (linear1): Linear(in_features=512, out_features=512, bias=True)
        (dropout): Dropout(p=0.1, inplace=False)
        (linear2): Linear(in_features=512, out_features=512, bias=True)
        (norm1): LayerNorm((512,), eps=1e-05, elementwise_affine=True)
        (norm2): LayerNorm((512,), eps=1e-05, elementwise_affine=True)
        (dropout1): Dropout(p=0.1, inplace=False)
        (dropout2): Dropout(p=0.1, inplace=False)
      )
    )
  )
  (proj_smiles_input): Linear(in_features=768, out_features=512, bias=True)
  (regression_head): Sequential(
    (0): LayerNorm((512,), eps=1e-05, elementwise_affine=True)
    (1): Dropout(p=0.1, inplace=False)
    (2): Linear(in_features=512, out_features=256, bias=True)
    (3): ReLU()
    (4): Dropout(p=0.1, inplace=False)
    (5): Linear(in_features=256, out_features=1, bias=True)
  )
)
number of params:  9429121
number of trainable params:  9429121
Epoch [1/10]  Train Loss: 5.5122  Val Loss: 5.3249
Epoch [2/10]  Train Loss: 3.7459  Val Loss: 3.2384
Epoch [3/10]  Train Loss: 3.3634  Val Loss: 3.1551
Epoch [4/10]  Train Loss: 3.3264  Val Loss: 3.4542
Epoch [5/10]  Train Loss: 3.2852  Val Loss: 3.1269
Epoch [6/10]  Train Loss: 3.2609  Val Loss: 3.0149
…
