…
| Processes:                                                                              |
|  GPU   GI   CI        PID   Type   Process name                              GPU Memory |
|        ID   ID                                                               Usage      |
|=========================================================================================|
|  No running processes found                                                             |
+-----------------------------------------------------------------------------------------+
loaded 330517 observations
number of unique genes: 47278
Transformer(
  (emb_gene): Embedding(47278, 128)
  (proj_expression): Linear(in_features=1, out_features=128, bias=True)
  (proj_gene_input): Linear(in_features=128, out_features=512, bias=True)
  (pos_encoder): PositionalEncoding(
    (dropout): Dropout(p=0.1, inplace=False)
  )
  (encoder): TransformerEncoder(
    (layers): ModuleList(
      (0-2): 3 x TransformerEncoderLayer(
        (self_attn): MultiheadAttention(
          (out_proj): NonDynamicallyQuantizableLinear(in_features=512, out_features=512, bias=True)
        )
        (linear1): Linear(in_features=512, out_features=512, bias=True)
        (dropout): Dropout(p=0.1, inplace=False)
        (linear2): Linear(in_features=512, out_features=512, bias=True)
        (norm1): LayerNorm((512,), eps=1e-05, elementwise_affine=True)
        (norm2): LayerNorm((512,), eps=1e-05, elementwise_affine=True)
        (dropout1): Dropout(p=0.1, inplace=False)
        (dropout2): Dropout(p=0.1, inplace=False)
      )
    )
  )
  (proj_smiles_input): Linear(in_features=768, out_features=512, bias=True)
  (regression_head): Sequential(
    (0): LayerNorm((512,), eps=1e-05, elementwise_affine=True)
    (1): Dropout(p=0.1, inplace=False)
    (2): Linear(in_features=512, out_features=256, bias=True)
    (3): ReLU()
    (4): Dropout(p=0.1, inplace=False)
    (5): Linear(in_features=256, out_features=1, bias=True)
  )
)
number of params:  11378177
number of trainable params:  11378177
training...
Epoch [1/100]  Train Loss: 3.0302  Val Loss: 2.7824
Epoch [2/100]  Train Loss: 2.8079  Val Loss: 2.7542
Epoch [3/100]  Train Loss: 2.7700  Val Loss: 2.9819
Epoch [4/100]  Train Loss: 2.4197  Val Loss: 1.9475
Epoch [5/100]  Train Loss: 1.9001  Val Loss: 1.7057
Epoch [6/100]  Train Loss: 1.7085  Val Loss: 1.5542
…
